examples/model_20210407-153118.pt (torch, 21433 bytes, 1 tensors)

weight f4 [100, 50]
000000 5c fb 65 be 4d 70 e7 be 8b a9 88 3e 3c 1e 4a 3f
       -0.22459167 -0.45202866 0.2669185 0.78952384
000010 e6 18 d5 be 39 a4 51 3f 21 b6 50 3e ee 3b 53 bf
       -0.41620559 0.8189121 0.20381977 -0.8251332
000020 90 77 71 3c ac bd 10 3f 9e fc a9 bf 9f a6 a1 be
       0.014737979 0.56539416 -1.3280218 -0.31572434
000030 cb 9b 39 bf d8 03 98 bf b0 bd 02 bf 35 6d c6 bf
       -0.72503346 -1.1876173 -0.5107069 -1.5502077
000040 1e f7 01 bf 49 43 f9 be 18 95 05 3e e0 ac 5e bb
       -0.50767696 -0.48684147 0.13045156 -0.0033977553
000050 45 50 d1 bd 05 66 c6 bf 47 31 b7 3f 8a 5d 02 3d
       -0.10220388 -1.5499884 1.4311913 0.031827487
000060 e4 a3 77 bf 75 21 9e 3e 3a 2c 95 3f f2 c2 51 3f
       -0.9673445 0.308849 1.1654122 0.8193809
000070 8a 34 46 bf a4 2c 62 bf 2c a6 a9 bd f5 88 22 be
       -0.7742392 -0.88349366 -0.08283648 -0.15872557
000080 e4 5a 1a 3f ed 8b d5 3f dc 1f f2 3e fb f8 32 be
       0.6029494 1.6683327 0.47289932 -0.17477791
000090 76 04 92 be 96 68 8e bf 20 ee c1 3e c8 81 91 3f
       -0.28519028 -1.1125667 0.37876987 1.1367731
0000a0 3c e0 18 3f cf c0 08 c0 dd 95 26 bf 2f cf dc 3c
       0.59717155 -2.136768 -0.65072423 0.026954262
0000b0 9c 5d a1 bf cc 6b b1 bf d2 d4 4a bf 6f f9 2e 3f
       -1.2606692 -1.3861022 -0.7923099 0.68349355
0000c0 45 c1 16 bf f0 6f 66 bc 4d 97 63 bf 5c f9 5c bf
       -0.58888656 -0.014064774 -0.8890274 -0.8631799
0000d0 8c 4a 0d 3d 01 5d d8 3e dd b0 b7 bf 59 20 be bf
       0.03449492 0.42258456 -1.4350849 -1.4853622
0000e0 77 21 16 3e 77 f8 c6 bf 0e 8f 12 3f 48 09 50 3f
       0.14661203 -1.5544575 0.57249534 0.8126416
0000f0 65 1b 0f 3f b2 3a 37 bf ed 57 5d bf f4 cb fe 3e
       0.55901176 -0.71573937 -0.8646229 0.4976498
000100 ca 19 20 3e 20 d9 45 bf 3e 47 19 be b1 06 7a 3f
       0.15634838 -0.7728443 -0.14968583 0.9766646
000110 8d e7 3c 3f 98 86 2d be 40 cb 0a bf 11 63 12 3f
       0.7379082 -0.16945875 -0.54216385 0.57182413
000120 6b 75 74 3f 5b 29 8b 3e b2 ab 37 be 08 d4 d4 3e
       0.95491666 0.2717999 -0.1793659 0.41568017
000130 8a 7d de 3f 34 56 a3 be 24 a7 e9 bf 03 b6 83 3f
       1.7382061 -0.31901705 -1.8254132 1.028992
000140 7b 24 29 be d5 30 06 be fd 50 48 bf 0e 58 5c 3f
       -0.16517822 -0.13104565 -0.7824858 0.8607186
000150 82 86 2e 3e b0 43 a3 bd 82 a9 86 3e 18 f3 c7 be
       0.17043498 -0.07971895 0.263012 -0.39052653
000160 a1 38 72 3e 30 5f f6 be cd 09 17 3f 30 46 33 bf
       0.23654415 -0.48119497 0.5899933 -0.7002897
000170 59 74 44 3f 1e 69 5b bf 67 ca e7 3d bd d8 00 40
       0.7674003 -0.8570727 0.11317902 2.0132287
000180 6a 1c ee bd 1f 4c c6 3f 9b 50 a3 be 82 4e 8d be
       -0.11626513 1.549198 -0.31897435 -0.2759896
000190 e3 b7 55 bf 0f 73 08 bf a4 37 3e bf df 20 52 3f
       -0.83483714 -0.53300565 -0.7430365 0.8208141
0001a0 b7 56 76 3f f5 95 02 c0 13 df 0c bf b5 28 1d 3f
       0.96226066 -2.0404027 -0.55027884 0.6139024
0001b0 fd 20 24 be b5 a2 62 3f f4 f4 97 3f 38 57 94 bf
       -0.16028209 0.8852952 1.1871629 -1.1589117
0001c0 3c 30 18 3f 5b f1 51 be 36 eb d6 be c5 71 5e be
       0.594486 -0.20502226 -0.41976327 -0.21723087
0001d0 e4 91 bb 3e 1e 25 8c 3f 41 1c ae be f0 8e c6 bf
       0.36634743 1.0948827 -0.3400593 -1.5512371
0001e0 3d 92 c8 be b6 c9 de bf 8a 08 fc 3d 9d aa c4 3e
       -0.3917407 -1.7405307 0.12306316 0.38411418
0001f0 e1 41 90 bf e4 fe c4 3f 6d 5f 95 3f 7a e8 f3 3f
       -1.1270105 1.5390286 1.1669747 1.9055321
000200 5b 64 24 be a7 ab 9f bf 7e 48 33 3e 6c a2 50 3f
       -0.16053908 -1.2474259 0.17508122 0.81497836
000210 e6 df 8e bf 43 9f 38 3f 79 2b 36 bf 7e ac 8a bf
       -1.1162078 0.72118014 -0.71160084 -1.083389
000220 18 4a 46 bf 6a 65 92 3e 27 6c a1 3f 58 8d 4e 3f
       -0.7745681 0.28592998 1.261113 0.80684423
000230 36 37 2b 3d e4 94 61 bf 91 fc 2a 3e 71 8a d0 bf
       0.0418007 -0.88117814 0.16697909 -1.6292249
000240 43 72 ad 3f a6 80 89 bf fe df c1 3e 03 af 98 3f
       1.3550495 -1.0742385 0.37866205 1.1928409
000250 e3 dc 99 3f 24 29 04 3f 1b 50 43 bf 7a 53 7c bf
       1.2020534 0.51625276 -0.76294106 -0.98564875
000260 2b a6 94 3f c9 91 f8 3f d7 41 e5 be 23 f0 8f 3f
       1.161321 1.941949 -0.44776794 1.1245159
000270 50 29 b0 bf 2f c1 96 bf b9 e6 a7 3f 86 12 5b bf
       -1.3762608 -1.1777705 1.3117286 -0.8557514
000280 bd e3 32 3f d6 84 f3 3e ff 5a 5c 3f e3 9e 27 3e
       0.6987875 0.47562283 0.8607635 0.16369204
000290 af 23 7d be 26 7c f0 be 94 ee 5f bf e1 a6 95 3e
       -0.24720643 -0.46969718 -0.87473416 0.2922888
0002a0 56 9f d9 3e 9c 45 fa 3e b5 af c2 bf 61 f0 a0 be
       0.42504376 0.48881233 -1.5209872 -0.31433395
0002b0 af c1 a6 3f f6 7a 88 3e b2 a5 2c 3f 3e 25 a3 bf
       1.3027858 0.26656312 0.6744033 -1.274574
0002c0 69 e2 08 3f 3c ae 06 40 84 06 88 be 01 1f 12 3e
       0.53470474 2.1043844 -0.2656747 0.1426964
0002d0 9f 0b d7 bf e0 50 3b bf 57 b8 e3 be 09 6a b5 3f
       -1.6800421 -0.7317028 -0.44476578 1.4172984
0002e0 79 2e 9d bd 7c db 22 3f 4b 9b 9d bf 8d 1b e7 bf
       -0.076748796 0.63616157 -1.2313017 -1.8055283
0002f0 d3 b3 e0 3f ef 1d 0c bf 7e 24 48 3f f8 a6 95 be
       1.7554878 -0.54733175 0.7818068 -0.2922895
000300 36 43 a8 3f 30 e7 d7 bf bd da 09 3e 38 c8 25 3f
       1.3145511 -1.6867428 0.13462348 0.64758635
000310 6e 44 89 be 16 69 53 3f fe 76 cd bc b1 92 4b 3e
       -0.2681002 0.82582223 -0.025081154 0.19880177
000320 37 37 13 c0 8e 75 43 bf 57 61 2b 3e a5 36 9f bf
       -2.300245 -0.7635125 0.16736351 -1.2438551
000330 01 50 3f 3f b1 0c e6 3e 2e 3a 0e 3e 6b 4c 8c be
       0.7473145 0.44931558 0.13889381 -0.27402052
000340 bb b3 f5 3e 3f e7 9c be 59 f8 21 3f 33 0a 17 bf
       0.47988686 -0.30645177 0.63269573 -0.5899994
000350 32 23 b2 be 56 b7 bb 3f 55 3e 88 bf cf cb 29 3f
       -0.34792477 1.4665325 -1.0644022 0.6632661
000360 61 10 89 bf e4 5e 1a 3f e1 a0 02 40 e5 5d fc be
       -1.0708123 0.6030104 2.0410693 -0.49290386
000370 2f e3 c7 be d0 c0 2a be 15 08 67 be 21 52 18 bf
       -0.39040515 -0.16675115 -0.22561677 -0.5950032
000380 19 63 0a bf b0 98 30 3f cc 00 52 3f 81 ab 55 3f
       -0.5405746 0.6898298 0.82032466 0.8346482
000390 5a 43 fe 3c d2 a4 5b 3f f1 b1 83 3e 67 13 d6 be
       0.031037975 0.8579837 0.25721696 -0.41811678
0003a0 a8 d6 23 bf 35 1e c4 3f 02 f1 26 3f 4f 56 73 be
       -0.63999414 1.5321718 0.652115 -0.23763393
0003b0 2c 5e 23 3e 79 6d 94 bf 02 2c c2 3e bd 9f 6c be
       0.15953892 -1.1595908 0.379242 -0.2310781
0003c0 87 5f 9a bf 88 7e ce bf a8 6b e6 3e 38 ec 6b bf
       -1.2060403 -1.6132364 0.4500401 -0.92157316
0003d0 fd b7 2b bf f3 35 67 bf 00 84 4b 3e 26 ea 95 3f
       -0.6707762 -0.90316695 0.19874573 1.1712081
0003e0 5b 0b c2 3e ed 2a 52 3e cf ff 7a 3e df bb 63 bf
       0.3789929 0.20524187 0.24511646 -0.88958544
0003f0 00 9f fa bf 6c 67 89 3f 61 08 3a 3f 28 03 a7 bf
       -1.9579773 1.0734687 0.72669035 -1.3047838
